…
g:
src/main.py --output_dir ./experiments --comment off wrist actigraphy small --name off_wrist_actigraphy_small --records_file off_wrist_actigraphy_records.xls --data_class actigraphy --pattern TRAIN --val_pattern TEST --epochs 10 --lr 0.001 --optimizer RAdam --pos_encoding learnable --task classification --batch_size 4 --num_heads 4 --d_model 32

Using device: cuda
Loading and preprocessing data ...
245873 samples may be used for training
245873 samples will be used for validation
0 samples will be used for testing
Creating model ...
Model:
TSTransformerEncoderClassiregressor(
  (project_inp): Linear(in_features=5, out_features=32, bias=True)
  (pos_enc): LearnablePositionalEncoding(
    (dropout): Dropout(p=0.1, inplace=False)
  )
  (transformer_encoder): TransformerEncoder(
    (layers): ModuleList(
      (0): TransformerBatchNormEncoderLayer(
        (self_attn): MultiheadAttention(
          (out_proj): NonDynamicallyQuantizableLinear(in_features=32, out_features=32, bias=True)
        )
        (linear1): Linear(in_features=32, out_features=256, bias=True)
        (dropout): Dropout(p=0.1, inplace=False)
        (linear2): Linear(in_features=256, out_features=32, bias=True)
        (norm1): BatchNorm1d(32, eps=1e-05, momentum=0.1, affine=True, track_running_stats=True)
        (norm2): BatchNorm1d(32, eps=1e-05, momentum=0.1, affine=True, track_running_stats=True)
        (dropout1): Dropout(p=0.1, inplace=False)
        (dropout2): Dropout(p=0.1, inplace=False)
      )
      (1): TransformerBatchNormEncoderLayer(
        (self_attn): MultiheadAttention(
          (out_proj): NonDynamicallyQuantizableLinear(in_features=32, out_features=32, bias=True)
        )
        (linear1): Linear(in_features=32, out_features=256, bias=True)
        (dropout): Dropout(p=0.1, inplace=False)
        (linear2): Linear(in_features=256, out_features=32, bias=True)
        (norm1): BatchNorm1d(32, eps=1e-05, momentum=0.1, affine=True, track_running_stats=True)
        (norm2): BatchNorm1d(32, eps=1e-05, momentum=0.1, affine=True, track_running_stats=True)
        (dropout1): Dropout(p=0.1, inplace=False)
        (dropout2): Dropout(p=0.1, inplace=False)
      )
      (2): TransformerBatchNormEncoderLayer(
        (self_attn): MultiheadAttention(
          (out_proj): NonDynamicallyQuantizableLinear(in_features=32, out_features=32, bias=True)
        )
        (linear1): Linear(in_features=32, out_features=256, bias=True)
        (dropout): Dropout(p=0.1, inplace=False)
        (linear2): Linear(in_features=256, out_features=32, bias=True)
        (norm1): BatchNorm1d(32, eps=1e-05, momentum=0.1, affine=True, track_running_stats=True)
        (norm2): BatchNorm1d(32, eps=1e-05, momentum=0.1, affine=True, track_running_stats=True)
        (dropout1): Dropout(p=0.1, inplace=False)
        (dropout2): Dropout(p=0.1, inplace=False)
      )
    )
  )
  (dropout1): Dropout(p=0.1, inplace=False)
  (output_layer): Linear(in_features=92160, out_features=2, bias=True)
)
Total number of parameters: 339746
Trainable parameters: 339746
Evaluating on validation set ...
Validation runtime: 1.0 hours, 30.0 minutes, 59.62686371803284 seconds

Avg val. time: 1.0 hours, 30.0 minutes, 59.62686371803284 seconds
Avg batch val. time: 0.08881919119748219 seconds
Avg sample val. time: 0.022205068729458023 seconds
Epoch 0 Validation Summary: epoch: 0.000000 | loss: 0.703988 | accuracy: 0.409895 | precision: 0.746019 | AUROC: 0.751833 | AUPRC: 0.861169 | 
…
